…
#slide[
  Based on the execution results:

  - *Input Shape:* 230 Features (High dimensionality due to One-Hot Encoding).
  - *Total Parameters:* 38,917 (Lightweight model).
  - *Trainable Params:* 38,533.

  *Layer Structure:*
  - Input (230)
  - Dense (128) $->$ BN $->$ ReLU $->$ Dropout
  - Dense (64) $->$ BN $->$ ReLU $->$ Dropout
  - Output (5 Classes)
]

== Implementation Code

#slide[
  ```python
  # Actual Model Summary Output
  Layer (type)                Output Shape              Param #
  =================================================================
  Input_Layer (InputLayer)    (None, 230)               0
  Hidden_Layer_1 (Dense)      (None, 128)               29,568
  Batch_Norm_1                (None, 128)               512
  Dropout_1 (Dropout)         (None, 128)               0
  Hidden_Layer_2 (Dense)      (None, 64)                8,256
  Output_Layer (Dense)        (None, 5)                 325
  =================================================================
  Total params: 38,917
  ```
]

#matrix-slide[
  #rotate(-90deg)[
    #image("figures/model_architecture.png")
  ]
]


= Training & Evaluation

== Training Performance

#slide[
  #align(center)[
    #image("figures/training_curves.svg", height: 85%)
  ]

  *Insight:* The model converges quickly. Validation accuracy peaks around *98%*, indicating robust learning without significant overfitting.
…
